lunar_lander.pth (torch, 22586 bytes, 6 tensors)

fc1.weight f4 [64, 8]
000000 a1 44 05 3f 98 5e 2d 3f 96 32 9c be 4e 96 0e 40
       0.52057844 0.67722464 -0.30507344 2.2279239
000010 fc e8 a8 be 28 5e 0c 3e 3e 3f e6 bd af 6f 2e 3e
       -0.32990253 0.13707793 -0.11242531 0.17034791
000020 fb 9a 93 3f 6c f4 7a be 00 77 36 3f ee cd a6 be
       1.1531671 -0.24507302 0.7127533 -0.32578987
000030 df 9a 13 3f 08 c9 8a 3e f5 81 b3 bd cf 6c 36 3d
       0.5765819 0.271065 -0.08765022 0.04453736
000040 68 07 bb 3d 9f 56 35 3e 9b 00 ab 3e 81 f6 20 3f
       0.09132272 0.17708825 0.333989 0.62876135
000050 4c 37 0c be 60 46 05 bf 54 a3 d1 be 98 75 0d 3f
       -0.13692969 -0.5206051 -0.40944922 0.5525756
000060 46 8f 75 3d 6e 25 14 bf d5 dd 3c bf 61 7a 9b bf
       0.05995109 -0.57869613 -0.7377599 -1.2146722
000070 5c 20 82 bd db 7b 54 bd 0e dd aa 3e fc fb ad bd
       -0.06353828 -0.05187593 0.33371776 -0.08495328
000080 dc 82 9a 3e 83 63 df 3d 99 f8 e6 3d 8f e5 04 bf
       0.30177963 0.10907652 0.11277885 -0.5191278
000090 d1 7f 36 3e 30 4a 65 3f b9 19 b2 be a4 4b 21 bf
       0.17822196 0.89566326 -0.3478525 -0.63006043
0000a0 39 02 1d 3f 35 47 ae bd dd 31 2e 3e 1a cd 0b bd
       0.61331517 -0.085096754 0.17011209 -0.034131147
0000b0 e5 28 a3 be d8 a8 1b 3d 82 7b 1d 3d cc db b1 3e
       -0.31867138 0.03800282 0.038447864 0.34738004
0000c0 37 0f 84 3e e8 a8 c7 be db 25 db be 16 67 91 be
       0.25792858 -0.38996053 -0.4280232 -0.2839896
0000d0 81 10 03 3f 0d fe d4 3e f6 5f 8e 3e 1c 19 93 3e
       0.5119706 0.41600075 0.27807587 0.28730094
0000e0 83 59 58 bb fa db 5a be 56 aa a4 3e c5 86 1e 3e
       -0.0033012338 -0.21372977 0.32161206 0.15481098
0000f0 65 6e d2 be fb 43 e2 be 54 5b b3 3e 96 e8 c7 3d
       -0.4109985 -0.4419249 0.35030615 0.09761159
000100 39 9b 77 3d b7 92 68 be 44 cf c5 3e 03 30 16 3e
       0.060450766 -0.22712217 0.38634694 0.14666753
000110 d1 af 24 bf 7e 86 04 bf 56 9c e7 3e a8 9a 7a 3e
       -0.64330775 -0.5176772 0.45236462 0.24473059
000120 eb 91 3f 3e 6d cf db be ba 10 c1 be 99 cb ff be
       0.18708007 -0.4293169 -0.37708074 -0.4996002
000130 42 52 6d 3e 48 2f c2 3e 4d ae 81 3e 48 f5 a2 3e
       0.2317591 0.37926698 0.25328293 0.3182776
000140 7a 2e 59 3e e7 23 77 be ea e8 26 3d 38 82 80 bf
       0.21209136 -0.2413479 0.040749468 -1.003974
000150 9a d0 da bd 29 30 32 3e d9 55 98 3e 6e 1f d6 be
       -0.10684319 0.17401184 0.29752997 -0.41820854
000160 7c 37 80 be cc 27 ad 3e 04 2e 0d 3f 06 95 9a bf
       -0.2504233 0.33819425 0.5514834 -1.2076728
000170 c1 d4 5b 3f 0e 5c 7e 3e f8 40 5a bf 3e 14 80 3c
       0.8587151 0.24839804 -0.85255384 0.015634652
000180 d9 4c 3d 3f 0a 5e 73 bd 0b e0 b7 be 30 b3 79 bf
       0.73945385 -0.059415855 -0.3591312 -0.97539043
000190 28 3c cb be bc 62 6e bd 8f b9 69 bd ce 55 1a be
       -0.39694333 -0.05819963 -0.057061728 -0.15071794
0001a0 b7 1d 6e bd 97 7b 95 3d 94 61 68 bd c3 5b 53 3e
       -0.058133807 0.072989635 -0.056733683 0.20640473
0001b0 13 20 25 bf fb 2e 52 bd 38 2c 16 3f 7c 4d 4c bd
       -0.64502066 -0.051314335 0.5866122 -0.049878582
0001c0 7c 10 99 bb 7d bd 88 be 9c 24 d2 be 16 a9 50 bf
       -0.0046711545 -0.26707068 -0.41043556 -0.81508005
0001d0 24 cb 41 3f 1f 12 2f 3e 8f 76 90 be 39 df 39 bf
       0.75700593 0.17096756 -0.28215453 -0.72606236
0001e0 e5 27 5c bd 99 d7 ab be e0 b6 ef 3e 1a 48 82 bf
       -0.053748984 -0.33562925 0.4681921 -1.0178254
0001f0 b5 9b 9e bc df 8a 4b bd 6e 07 a9 3d e4 18 03 bf
       -0.019361356 -0.049692985 0.0825337 -0.51209855
000200 97 9d ff 3c e3 4f 08 be ba 83 ef 3d e2 c6 66 3d
       0.031203074 -0.13311724 0.11695047 0.056342013
000210 83 2a 27 c0 e8 4d a0 3d 7b 72 24 be 8c 93 74 be
       -2.6119697 0.078273594 -0.16059296 -0.2388441
000220 ff 49 e9 bd 8a 64 6b be 5a 0c 92 3d ac ed 17 bf
       -0.11391067 -0.22987571 0.07131262 -0.59347034
000230 24 20 62 3e bf 1c fb bd af 9d f4 3e c8 b4 9f be
       0.22082573 -0.12261342 0.47776553 -0.31192613
000240 ce 5e 0a bf ec b0 ae 3e 47 d9 93 3d 75 6b 82 3f
       -0.5405091 0.34119356 0.07219177 1.0189043
000250 d3 97 29 3f c4 1f 02 bd 58 71 dc 3e b5 11 9e be
       0.6624729 -0.031768575 0.43055224 -0.30872884
000260 4a ce 60 3d a3 2e 93 be 8d 01 86 bd 85 32 f1 be
       0.054884233 -0.28746518 -0.065432645 -0.47108856
000270 58 05 77 3e 92 eb 9d 3e a4 f4 aa 3e e6 1b fd bd
       0.24123132 0.30843788 0.3338977 -0.12358837
000280 4e 7c 16 3f 2f 26 86 3f dc 8f 03 3f 7d 9a 6b bf
       0.58783424 1.0480403 0.51391387 -0.92032605
000290 bb 0b 2f 3f f2 c0 60 be 7a 4f c2 be a6 03 10 3f
       0.68377274 -0.21948603 -0.3795126 0.5625557
0002a0 64 c7 5e bd 4d d2 63 be be 5c b2 be fc bb 11 bf
       -0.054389372 -0.22248192 -0.34836382 -0.56927466
0002b0 59 4b 81 3f 55 48 28 3e 5a 24 16 3e f4 92 21 be
       1.0101119 0.16433842 0.14662305 -0.15778714
0002c0 e8 ac 61 3e 92 22 14 bf f9 00 6b 3f 6e 15 ee bf
       0.22038615 -0.5786525 0.9179836 -1.860029
0002d0 30 18 e1 3e 04 f2 f3 3e 67 b8 95 3e ec 49 1c 3e
       0.43963766 0.4764558 0.2924225 0.15262574
0002e0 fe d1 b6 3e e5 95 38 3f c3 df 63 3f 31 d6 e1 3e
       0.35707086 0.7210372 0.8901331 0.44108728
0002f0 16 8c af be a6 5a ed 3d ad 97 25 be 45 47 35 3d
       -0.34286565 0.115895554 -0.16171141 0.04425742
000300 64 47 0b 3f 10 f5 5a 3f a7 77 f0 be 77 b8 39 bd
       0.5440581 0.85530186 -0.46966287 -0.045341935
000310 f6 8e 19 bf 83 3a 5d 3f 6e 80 c3 3b 8d 55 38 3e
       -0.59983766 0.86417407 0.0059662377 0.18001385
000320 9a 0a 8e be ff 86 7a 3d 1d f6 01 40 5b a8 a1 3e
       -0.27742463 0.0611639 2.0306466 0.31573758
000330 01 0c 58 3e f2 f0 86 bb 26 22 29 be ed a8 9c be
       0.21098329 -0.0041180784 -0.16516933 -0.3059763
000340 30 bf 01 be a1 db a3 3e ac 80 9d bc b7 0a b4 bd
       -0.12670588 0.320035 -0.019226395 -0.08791106
000350 03 4c 1d 3f d6 d4 58 be 04 56 47 bf fd bd 1a 3f
       0.6144411 -0.2117494 -0.77865624 0.6044615
000360 26 5d a0 3e a9 fd 26 bd e7 cb 32 3e ab e9 bb 3d
       0.31321067 -0.040769253 0.17460595 0.09175428
000370 32 b2 af be f3 43 d4 3d 37 60 a3 3d 9d cd 96 3e
       -0.3431564 0.10364523 0.07977336 0.29453745
000380 6e a8 05 be 44 43 d0 3e af 31 d9 bd a2 df 0c 3f
       -0.13052532 0.4067632 -0.106051795 0.55028737
000390 40 ac 38 bf 0b 9b 59 bf 89 d2 82 be 2d ba 12 3f
       -0.7213783 -0.850022 -0.2555125 0.5731533
0003a0 ad f5 6d bd e6 00 0f 3f 41 f9 37 3f 3d ec 69 3f
       -0.058095623 0.55860746 0.71864706 0.91376096
0003b0 64 ca 2a 3f cd 38 b9 bd 60 34 1e be 4b 0e 24 3d
       0.66715074 -0.09044037 -0.15449667 0.040052693
0003c0 0d 07 fb 3d ac fd a4 be 51 ac cf bc b8 39 84 bf
       0.12257204 -0.32224786 -0.025350722 -1.0330114
0003d0 ad f5 2e 3e ee 6e 5c 3e fa b3 54 bf ac 42 b0 be
       0.17085905 0.21526691 -0.8308712 -0.34425867
0003e0 9b 15 2c be 91 32 fd 3e 4a 02 03 bf 37 01 ab bf
       -0.16805117 0.49452642 -0.5117537 -1.3359746
0003f0 82 a0 99 be 66 32 33 3e 41 df d7 bc b6 7e 20 bf
       -0.3000527 0.17499694 -0.026351573 -0.62693346

fc1.bias f4 [64]
000000 17 b3 b4 3e 09 d2 18 bd 49 d7 12 bf ca c3 1e bf
       0.35292885 -0.03730968 -0.5735975 -0.620175
000010 78 c5 ae 3d bd 73 d9 bc f0 4b 8f 3e e2 ba 41 3e
       0.08533758 -0.026544446 0.27987623 0.18918946
000020 4f b4 5e 3e bc 94 99 3e 8a 9b c9 3d ba 31 87 3e
       0.2174847 0.29996288 0.0984412 0.26405126
000030 40 ee 99 3f a7 cd 79 be 84 58 d3 3d e1 4a 56 3e
       1.2025833 -0.24394856 0.103196174 0.20927002
000040 99 bc b0 3d fb 1c 2a 3e cc 5b c5 3e 9b c8 6c 3e
       0.08629722 0.16612618 0.38546598 0.231234
000050 fc 72 31 3e da 04 48 3e 1d c9 07 3f 2c 61 1c 3e
       0.1732902 0.195331 0.5304125 0.15271443
000060 46 48 ec be a3 d9 c9 bd e3 c8 dd be 63 2f 99 3f
       -0.4614889 -0.09855964 -0.43317327 1.1967586
000070 78 a6 e2 3a 4a fa f6 bd c0 2b 1a be 1c 3e df 3e
       0.0017292043 -0.120594576 -0.15055752 0.43602073
000080 7a 9a c7 3e 13 b2 34 be f9 1b ea 3e 05 0d 92 3e
       0.38985044 -0.17646055 0.45724466 0.28525558
000090 55 2a 60 3f 17 5f ac be d1 57 fd 3d 9e 85 71 bd
       0.87564594 -0.33666298 0.12370265 -0.058965318
0000a0 a2 0f 81 3e 6a be 23 3e e4 dd 84 3e f7 a7 35 be
       0.2520724 0.15990606 0.2595054 -0.17739855
0000b0 ee bd 8e 3e 52 e8 ca be fe df 89 3e 73 d5 78 3f
       0.2787928 -0.3963037 0.26928705 0.972007
0000c0 f4 6c f9 3e 4f dc a3 3f 9a 5d 6f be 26 c2 cf be
       0.48715937 1.2801608 -0.2337555 -0.4057781
0000d0 3a 0b 6f be d0 54 78 be d3 69 ce be 68 cb 33 3c
       -0.23344126 -0.24251103 -0.40315112 0.010973789
0000e0 90 d2 08 bf 32 63 34 bf 5b c0 be be a9 31 3d bf
       -0.5344629 -0.7046386 -0.3725613 -0.739039
0000f0 d2 62 59 bf 9b 6c 95 3d 93 35 7e 3f 0d 84 12 3e
       -0.8491641 0.072961055 0.993005 0.14308186

fc2.weight f4 [64, 64]
000000 de 9a 30 bd ef 2e 64 3d 1c 9b 7c bd 63 a8 8a bd
       -0.043116443 0.055708822 -0.06167136 -0.067703985
000010 33 77 87 3d a0 0d df bd 55 45 60 3a 90 1f cf 3d
       0.06614532 -0.10891271 0.0008555253 0.10113442
000020 96 36 3d 3c 16 d8 86 3c 0e cf b6 bd 43 30 52 bc
       0.011548659 0.01646046 -0.08926211 -0.012828889
000030 a2 67 7c bc 73 59 a7 3c e1 fe 2d 3d 8c 4b ca 3d
       -0.015405567 0.020428395 0.0424794 0.09877691
000040 f4 06 d4 bd 41 44 b3 bb 3b 57 8a bd f7 2d ec bd
       -0.10352889 -0.005470783 -0.06754919 -0.115322046
000050 29 a7 bc bc a7 e2 f7 bd a5 0d 94 3d d2 22 78 3b
       -0.023028927 -0.121037774 0.07229165 0.0037862551
000060 28 f9 89 bd c9 a6 90 3d 6c fd e8 bd 72 13 8a bd
       -0.06736976 0.07063062 -0.113764614 -0.0674199
000070 90 7e c7 bc 3c 89 d9 bd da e0 a0 bd 6b 32 ea bc
       -0.024352342 -0.106218785 -0.07855387 -0.028588494
000080 2e bf a4 3d f4 7b e7 3d 64 44 8e 3d 18 72 ce bd
       0.08044277 0.11302939 0.06946638 -0.100803554
000090 b6 06 ba bd 12 2a c7 3d 62 0e 27 3d 26 6e f4 bb
       -0.09083311 0.09724821 0.0407852 -0.00745942
0000a0 7a 4d af 3c 2b 2c e2 bd 08 f3 2a bd d7 92 e0 3d
       0.021399248 -0.110435806 -0.04173568 0.109655075
0000b0 4c 2d 2a bd d2 98 8a bc 0c 82 cc bd 98 07 ad bd
       -0.041547105 -0.016918574 -0.09985742 -0.08448714
0000c0 89 ce 61 bc bb fd b2 bd c0 f8 7d bc 56 cd 24 3d
       -0.013782152 -0.087398015 -0.015501201 0.040234886
0000d0 d4 69 fa bd 90 95 e0 3c f0 44 a9 bd 67 2c 8e bd
       -0.12227216 0.027415067 -0.08265102 -0.06942063
0000e0 27 2b 19 3d 2e ec b5 3d 4a 3e 39 bd 1c 36 52 bd
       0.03739467 0.08882938 -0.04522542 -0.051321134
0000f0 b0 4e ce bd bc 38 94 bd d6 e1 f2 bd e8 07 18 bd
       -0.10073602 -0.07237384 -0.11859481 -0.037116915
000100 c1 45 e4 3e a3 ff 8a 3d de 56 03 3f 79 d9 c0 3e
       0.44584468 0.0678704 0.51304424 0.37665918
000110 91 cb 5b bd d1 94 a6 3a ca 95 18 3e 5f 0f 73 3c
       -0.053660933 0.0012709146 0.1490089 0.014835208
000120 c1 ad c8 3d 8a cc 61 3d e1 73 9d 3e c4 c8 fa 3d
       0.09798766 0.055126704 0.3075247 0.12245324
000130 6d 6c 5f 3e da 1c 1e 3e b6 43 2c be 9f 0b fa 3d
       0.21818705 0.15440693 -0.16822705 0.12209248
000140 01 d1 8a bf bc f4 99 bd 1c fd fb 3d 4a 8d 92 3e
       -1.0845033 -0.075173825 0.12304136 0.2862342
000150 71 a2 ae 3d ed c5 70 bc 99 39 fc be 84 65 12 3f
       0.08527077 -0.014695627 -0.49262694 0.5718615
000160 98 49 09 bf d5 a8 e7 bf ba dc c7 3e dc ab 26 3e
       -0.5362792 -1.8098398 0.39035589 0.16276497
000170 b1 be 13 3f 39 d0 13 bf af 18 07 bf e4 15 59 3e
       0.57712847 -0.577396 -0.5277204 0.21199757
000180 12 88 c6 3d 94 29 9b be 86 d4 29 3e b5 51 22 bb
       0.09693922 -0.3030516 0.16584978 -0.002476794
000190 a0 25 a7 3d e2 2f e8 3e 8d 91 87 3e cb 5d 4a 3e
       0.08161473 0.45349032 0.26478234 0.19762342
0001a0 23 48 5b 3f 23 ac b8 bd 89 af b3 3d f9 9c 83 3e
       0.85656947 -0.090172075 0.08773715 0.25705698
0001b0 e5 42 a3 be f2 c9 fc bb d0 bf 1d 3e 0b b4 81 3c
       -0.31886974 -0.0077145034 0.15405202 0.015832921
0001c0 07 69 ee be 7c 5b 32 3e 24 d1 42 bd a4 d7 cc be
       -0.46564505 0.17417711 -0.047562733 -0.4000827
0001d0 51 90 66 3e 1f cd a2 3e a2 19 00 bc b3 4b 84 3e
       0.2251599 0.3179712 -0.007818611 0.25839004
0001e0 23 aa 8c 3f a6 3b 75 bf 8c 66 c6 3e 13 ad e2 3e
       1.0989422 -0.9579414 0.38750112 0.4427267
0001f0 fd 8b 3b 3d ac 37 98 3e 61 0d 0f 3e 54 cf e3 bf
       0.0457878 0.29729974 0.13969947 -1.7797647
000200 20 da 77 bd 0e fa 18 bf 16 76 05 c0 d8 ba 97 bf
       -0.060510755 -0.59756553 -2.0853324 -1.1853895
000210 6d 46 86 bf 4f 1c 8e be af 67 d3 bd 39 9a 03 be
       -1.0490242 -0.27755973 -0.103225105 -0.128518
000220 f8 52 0a be 59 92 9a be 2b fa a8 be b7 a1 b7 bd
       -0.13508213 -0.3018978 -0.33003363 -0.089663915
000230 fb c6 2c 3f fd 7e 05 bf 72 3a 61 bf 97 5a e3 be
       0.6749112 -0.52146894 -0.87979805 -0.44405052
000240 1d e6 0a 40 55 54 aa be 09 20 2c bf 51 92 4d be
       2.170295 -0.33267465 -0.6723638 -0.20075347
000250 47 44 6d 3e 6d 7a 76 3d e5 d1 66 3f 3e ff b5 3d
       0.23170577 0.060175348 0.90164024 0.08886574
000260 e7 12 7e 3f 35 83 f3 3f c3 d7 36 bf 1b cf 0c 3f
       0.9924759 1.9024416 -0.71422976 0.5500352
000270 41 4e a6 bf 5d 05 87 3f 90 c4 8d bf b0 07 f8 3e
       -1.2992631 1.0548512 -1.1075611 0.48443365
000280 2e db b9 bc 44 bb 34 3f 0c c8 ca 3e 72 7c 9f bd
       -0.02268752 0.70598245 0.3960575 -0.07787408
000290 44 95 05 3f f4 98 be bf 81 92 62 bd 51 1c 0e bf
       0.52180886 -1.4890428 -0.0553155 -0.5551196
0002a0 5f 63 b1 bf ba 84 39 3f 22 91 6d be 9c 34 ae be
       -1.3858451 0.7246815 -0.23199895 -0.34024513
0002b0 dd 6f d1 3e 44 2e 29 bf b9 99 03 3f fd d1 08 3f
       0.40905657 -0.6608622 0.5140644 0.53445417
0002c0 77 f4 3f 3f d9 51 20 3f 9b 63 6f 3f fe 80 d2 bf
       0.749824 0.6262489 0.9351136 -1.6445615
0002d0 34 be bf 3e 06 41 c4 be 3c 28 71 bf c6 8a 00 be
       0.374498 -0.3833086 -0.9420202 -0.12552938
0002e0 1d 55 54 bf a2 89 7b 3f 67 9d 4a bf 2e 3f c3 bf
       -0.8294237 0.98256886 -0.79146427 -1.5253656
0002f0 82 d4 16 c0 46 85 30 3d fd bd 14 3f f0 2c 86 3f
       -2.3567204 0.04309585 0.581024 1.0482464
000300 08 e1 d8 3e b1 f4 18 3f d2 13 13 3f ec d4 f9 3e
       0.42359185 0.5974837 0.5745212 0.4879526
000310 67 fb 27 3e 33 67 62 3d b1 6c 07 3e 74 5a e2 3d
       0.16404496 0.0552742 0.13225056 0.11052409
000320 3c 06 ea 3d 42 42 53 3e b0 fb 9d 3e c9 81 99 3e
       0.1142697 0.20630744 0.30856085 0.2998183
000330 82 5b a4 3d 6d 7c 97 3e 1b 76 d5 3e 28 c1 7a 3e
       0.08025266 0.29587117 0.4169167 0.24487746
000340 a8 92 a2 bf f0 be 8f 3c 93 39 f6 3e 0f 48 76 3e
       -1.2701006 0.0175471 0.480908 0.24050926
000350 ed 79 15 3e 21 d0 16 3e 04 11 dd be 52 f2 0f 3f
       0.14597292 0.14727832 -0.43177044 0.56229126
000360 fb 22 85 bf 88 97 db bf 0e 99 0e 3f cc 32 30 3d
       -1.04013 -1.7155619 0.5570229 0.043017194
000370 30 38 90 3e 74 d8 7f bf 78 29 cb 3e 26 51 dd 3d
       0.28167868 -0.99939656 0.39680076 0.108064935
000380 3f 0a 94 3c 62 ed 26 bf 6b c1 1a 3e 78 32 cf 3d
       0.018071292 -0.6520597 0.15112846 0.10117048
000390 71 90 5d bd a6 ab 12 3f 32 ba ae 3e 75 8c 4b 3e
       -0.05409283 0.57293165 0.3412643 0.19877799
0003a0 7a de 4a 3f bb 2e 80 be e2 20 20 3e 10 b0 c4 3e
       0.7924572 -0.25035653 0.15637544 0.38415575
0003b0 48 74 ea bd 83 09 c9 3e 87 01 10 3e 36 e4 66 bc
       -0.1144796 0.3926507 0.14063083 -0.014092496
0003c0 7c 31 55 be 5b 54 3f 3e fd 73 18 bf d6 d4 19 3e
       -0.20819658 0.18684523 -0.59551984 0.15022597
0003d0 f3 21 a6 bc c2 23 db 3e bb 5c 11 3e 99 51 6d 3e
       -0.02027986 0.4280072 0.1419553 0.23175658
0003e0 ce 2f 52 3f 6c 45 4d bf 12 ed f0 3e 34 59 6a 3e
       0.82104194 -0.80184054 0.4705587 0.22885591
0003f0 30 34 4e 3d 0a 15 fd 3e e9 71 05 3e fa db b1 bf
       0.05034274 0.49430114 0.13031735 -1.3895257

fc2.bias f4 [64]
000000 16 3d 76 3d 49 bd 3c 3e e0 71 2a 3f d3 4e 7b 3d
       0.06011685 0.18431582 0.6658001 0.06135447
000010 d2 ae 8d 3d 8f db 5b 3e 0b 66 d5 bc 63 c9 03 3e
       0.0691811 0.21470474 -0.026049634 0.12869792
000020 5c 63 30 3e 1a c1 17 3e 2f 8b 59 bd 53 b5 9f 3d
       0.17225403 0.14819756 -0.05311125 0.07798257
000030 b5 00 2b 3d ca bf ca bd 10 13 11 3e 9e d8 02 3f
       0.04174872 -0.09899862 0.14167428 0.5111178
000040 dd 73 f4 bd 74 90 45 3d 0b 1b ff be b4 18 63 3d
       -0.11936162 0.048233464 -0.4982532 0.05544348
000050 ea 40 1f 3e 5c e9 1c bf 64 2c 9d bb dc 0b 6c bd
       0.15552106 -0.6129358 -0.0047965515 -0.057628497
000060 27 81 39 3e 54 b6 cd 3d 74 79 fb 3d ba f4 19 3e
       0.18115674 0.10044542 0.12279025 0.15034762
000070 45 cb 63 3d ac 67 cc 3d ec b0 c1 3d 0c c7 c0 3d
       0.055613775 0.09980711 0.09457573 0.09412965
000080 2f ca 6f 3d f1 46 1b 3f 69 a8 3e 3e 07 ae 80 3e
       0.058542427 0.60655123 0.18618931 0.25132772
000090 1c 00 1e 3f 08 b5 cc 3c 6a da 32 3e 11 db 83 3e
       0.61718917 0.024988666 0.17466131 0.25753072
0000a0 e0 d5 14 3f a1 d2 b8 3d b6 12 fb bd 78 45 d8 3c
       0.5813885 0.09024549 -0.12259428 0.026400313
0000b0 29 4a 02 3f 08 4e 58 3e ff cb 9f 3d f6 7e 37 3f
       0.5089441 0.21123517 0.07802581 0.716781
0000c0 51 5d 91 3e c2 ce 40 3e 8d aa aa bd a4 09 3c 3d
       0.28391507 0.18828872 -0.08333311 0.04590763
0000d0 82 73 dd 3d 32 79 54 3e 0c a2 50 3d 82 40 9b 3e
       0.10813047 0.20749357 0.05093579 0.30322653
0000e0 ad e8 5a 3d e1 44 0f 3e 70 f4 9b 3e 7e d4 dc 3d
       0.053444553 0.13991119 0.3045993 0.10782717
0000f0 b6 d2 8e bc bb e8 0f 3e e5 bc 06 be 91 16 26 3f
       -0.01743446 0.14053623 -0.13157995 0.64878184

fc3.weight f4 [4, 64]
000000 bb 80 9d 3d 9b 39 ff be 10 e7 ef 3f 3b 1d f5 be
       0.07690569 -0.49848637 1.874239 -0.47873864
000010 76 99 b1 bd 29 72 05 bf 74 28 f8 be 67 f2 f2 be
       -0.086718485 -0.5212732 -0.48468363 -0.47450563
000020 53 ff d3 be 11 27 fc be f6 ad f5 be be 1a e8 be
       -0.41405734 -0.49248555 -0.47984284 -0.45332903
000030 7a 53 e4 be 61 5c 9d 3d dd 54 bf be 89 c6 87 be
       -0.44594938 0.076836355 -0.37369433 -0.26518658
000040 68 5d d0 bb 4c 3b b7 be e8 d3 3c 3f 27 a9 0c bf
       -0.006358791 -0.35787427 0.73760843 -0.54945606
000050 07 66 d5 be 79 58 85 be 20 0e e1 ba 6e 7b 5c bd
       -0.41679403 -0.26044062 -0.0017170347 -0.05382865
000060 5c 4d a4 be ca 2b ef be 61 9d bb be ff 83 bd be
       -0.3209027 -0.46713096 -0.36643508 -0.37014768
000070 cd c0 c2 3c 96 c6 d2 be e1 a2 de be 54 ef da be
       0.023773575 -0.41167134 -0.43483642 -0.42760718
000080 7b de 50 3c da 93 f8 3f 01 60 17 bf 79 dc f3 be
       0.012748356 1.9420121 -0.59130865 -0.47629145
000090 d6 4c 77 40 a7 d4 c1 be b4 23 7f be dd de f9 be
       3.8640647 -0.37857553 -0.24915963 -0.48802844
0000a0 07 eb f9 3f 19 4c 98 be c0 60 89 bd de 33 48 3f
       1.952485 -0.29745558 -0.06707907 0.78204143
0000b0 18 3c 41 3f 3b 81 ba be e8 37 84 be 4b 59 eb 3f
       0.7548232 -0.3642672 -0.25823903 1.8386625
0000c0 ea c5 dc be cd f4 a7 be 9e 42 d2 be 0c 2b e7 be
       -0.43119746 -0.32803956 -0.4106645 -0.4515003
0000d0 d9 78 fc be 96 b3 03 bf ea 80 d7 be 6d 41 53 3d
       -0.4931095 -0.514459 -0.4209054 0.051576067
0000e0 8d 7d bc be b8 e6 86 be 0e cc 1b be eb 39 02 bd
       -0.36814538 -0.263479 -0.1521456 -0.031793516
0000f0 14 89 2d bd b7 55 01 bf 4a f0 e7 bd 49 e8 eb 3f
       -0.042367056 -0.50521415 -0.113251284 1.8430263
000100 5f 56 b4 bd e5 97 bd be 70 4e b7 3f 99 ff c3 be
       -0.088055365 -0.3702995 1.4320812 -0.38280943
000110 07 8e 37 3e 6d dd c9 be e3 23 a5 be 8d 50 83 be
       0.17925273 -0.39426747 -0.32253942 -0.25647393
000120 29 2a 6e be 1a 01 c5 be 4a e4 0d bf e3 35 83 be
       -0.2325827 -0.38477403 -0.55426466 -0.2562705
000130 95 0f 38 be b0 40 a2 bc e9 d6 c6 be 9e aa c0 be
       -0.17974694 -0.019806236 -0.38835838 -0.3763017
000140 96 d9 df 3d bd 57 08 bf f5 33 a3 be 10 34 ac be
       0.10930173 -0.5325888 -0.31875578 -0.3363347
000150 27 52 f9 be b3 5e b5 be de e1 dc 3d 95 af 97 3d
       -0.4869549 -0.35423812 0.10785268 0.074065365
000160 10 8f ee be 81 86 e6 be ea 02 1c bf d0 ba 01 bf
       -0.46593523 -0.45024493 -0.60941947 -0.5067568
000170 0f 3b 48 bc 3e 1f fe be fd 30 cf be 80 bb b8 be
       -0.012221112 -0.4963321 -0.40467063 -0.3608055
000180 f4 83 12 bd b7 b3 e9 3f 16 78 70 be 8c 6a eb be
       -0.03577037 1.825797 -0.23483309 -0.45979726
000190 32 0e 7b 40 e8 75 9b be e8 9f 06 bf 86 7d 0a bf
       3.9227414 -0.30363393 -0.5258775 -0.54097784
0001a0 11 74 15 40 d5 16 fe be 62 ce f4 3d 08 f1 79 3f
       2.3352091 -0.49626794 0.11953427 0.9763341
0001b0 2e 7a 88 3e a7 7c a9 be c5 00 ed be fc 5c 02 40
       0.26655716 -0.33102915 -0.4628965 2.0369253
0001c0 46 9a 10 bf d9 12 05 bf 89 d9 0a bf ca 62 04 bf
       -0.564854 -0.51981884 -0.5423818 -0.5171324
0001d0 f8 fa bd be cb 4f d8 be 31 3e bd be 3b 27 34 3f
       -0.37105536 -0.42248377 -0.3696151 0.7037236
0001e0 3a 93 13 bf 6f 5d 8b be 3e 6f 87 3f 41 1e 1c 3d
       -0.57646525 -0.27219722 1.0580823 0.03811479
0001f0 f4 24 16 bd fb 1e c2 be d5 2f ed 3c 19 b5 d1 3f
       -0.036656335 -0.3791426 0.028953472 1.6383392
000200 78 7b c6 3d 21 2e 0a bf ae 68 f5 3f 61 e2 fa be
       0.096915185 -0.5397664 1.9172571 -0.49000838
000210 ff c2 2f bf cb ac 48 bd b5 6b 44 be 40 46 98 be
       -0.68656915 -0.048992913 -0.19181712 -0.29741096
000220 17 00 b6 3e 66 a1 f0 be b1 bc 03 bf 04 6a 13 bf
       0.35546944 -0.46998137 -0.51459795 -0.5758364
000230 09 cf 92 be 56 6a 96 3d 26 73 1f bf 56 f6 92 bf
       -0.2867358 0.07344501 -0.6228508 -1.1481426
000240 60 12 80 3d af 9e f3 be 2f ab 8f bf d4 5d 11 bf
       0.06253505 -0.47582003 -1.1224116 -0.56783795
000250 61 6d f6 be ab 63 a5 bf e9 89 50 bd 9b bf 90 3c
       -0.48130324 -1.2921041 -0.05091277 0.01766949
000260 c4 b1 99 be e7 d2 11 bf 3e 26 bf be 2e a6 9c be
       -0.30018437 -0.56962436 -0.37333864 -0.30595535
000270 08 d3 e1 bc 5a 49 f2 be ed 7e 8c be 13 51 d7 be
       -0.027566448 -0.47321588 -0.27440587 -0.42054042
000280 70 2f 6a 3d 92 bc d2 3f 57 24 c1 be 12 83 d3 be
       0.057174146 1.6463797 -0.37723038 -0.41310936
000290 cf b2 0f 40 58 79 08 bf 0d 90 a9 be 00 f2 88 be
       2.2452886 -0.53310156 -0.33117715 -0.2674713
0002a0 02 9b df 3f d2 52 a0 be e4 4b ce 3d 4d a7 7e bf
       1.746918 -0.31313187 0.10073069 -0.9947403
0002b0 b7 83 6a 3f 7a ff 2d bf 0c 29 ab be 70 09 e0 3f
       0.9160723 -0.6796795 -0.33429754 1.750288
0002c0 ad 0f 95 be 27 36 d1 be cc e6 c6 be 1e a0 24 bf
       -0.29113522 -0.40861627 -0.3884796 -0.6430682
0002d0 91 a1 36 bf d2 ba 16 bf ca 71 92 be 63 1e 7c 3b
       -0.7134028 -0.58878815 -0.2860244 0.003847026
0002e0 da 33 87 be d4 19 6a bf 32 1f 61 bf 24 e1 c0 3d
       -0.26406747 -0.9144566 -0.87938225 0.09417942
0002f0 38 43 bc 3c 83 7b dc be 37 f0 6a 3d ad 1f e8 3f
       0.022981271 -0.43062982 0.057357993 1.8134667
000300 4f 53 b3 3d 82 a1 13 bf f6 1f d8 3f ac 41 0b bf
       0.08756124 -0.57668316 1.6884754 -0.5439708
000310 bb c8 3b bf c3 e0 15 be a1 9f 02 bf 4d 01 00 bf
       -0.73353165 -0.14636521 -0.51024824 -0.50001985
000320 38 9f 9b bd a4 6d a2 be 82 f4 03 bf 20 1e 03 bf
       -0.07598728 -0.31724274 -0.51544964 -0.5121784
000330 d8 ea 15 bf 27 eb a2 3d 86 65 b7 be 2f 5c 34 3d
       -0.5856147 0.07955008 -0.35819644 0.044033226
000340 e8 08 a4 3d 28 42 ea be a9 54 c9 3c 05 5c dd be
       0.08009511 -0.45753598 0.024576502 -0.43234268
000350 9f 44 9e be 35 87 4d bf 4b 3e 88 3d 4d 72 92 3d
       -0.3091173 -0.80284435 0.066525064 0.071507074
000360 9e 8a bc be 14 69 a4 be 4e f7 bb be ea a2 93 be
       -0.36824507 -0.32111418 -0.36712116 -0.2883523
000370 b6 83 e8 3d a6 53 ca be 72 5c 0d bf 3d 3e e1 be
       0.11353247 -0.39516944 -0.55219185 -0.43992797
000380 98 a0 c5 3c db 8c 03 40 21 95 be be 5e 90 80 be
       0.024124429 2.0554721 -0.3722315 -0.25110143
000390 6e 4a 87 40 b5 c2 0e bf 71 21 0c bf 10 d8 21 be
       4.2278357 -0.5576585 -0.5473853 -0.15805078
0003a0 3f c5 af 3f 4e 9d c4 be a2 05 bc bd a6 0e 31 3f
       1.373207 -0.38401264 -0.09180762 0.69162977
0003b0 1d a7 9d 3f 17 98 2f bf 00 d6 03 bf 7a 99 09 40
       1.2316624 -0.68591446 -0.51498413 2.1499925
0003c0 05 68 9a be c7 a5 9e be 0a 8f 26 bf c4 92 03 bf
       -0.30157486 -0.30985853 -0.6506201 -0.5139582
0003d0 d2 3d 3d bf d8 f2 bd be ac b9 1a bf aa 2f 1d bf
       -0.73922455 -0.37099338 -0.6043956 -0.61400855
0003e0 62 b7 20 bf d6 2e 74 be cc 13 06 be 95 54 bf bd
       -0.6277982 -0.23845991 -0.1309349 -0.093423046
0003f0 63 ed a7 3d d4 e9 03 bf 4c 8b ef bd 37 f6 c4 3f
       0.08199575 -0.5152867 -0.11696491 1.5387639

fc3.bias f4 [4]
000000 33 f7 2c be 82 e6 fd bd 4d 4c de 3d fd fe e9 3e
       -0.16891174 -0.123974815 0.10854397 0.45702353
